WARNING: model file MODEL_scratch.h5 exists and will be overwritten!

Building our scratch model...

_________________________________________________________________
Layer (type)                 Output Shape              Param #   
=================================================================
zero_padding2d_1 (ZeroPaddin (None, 114, 114, 3)       0         
_________________________________________________________________
conv2d_1 (Conv2D)            (None, 57, 57, 32)        2432      
_________________________________________________________________
max_pooling2d_1 (MaxPooling2 (None, 28, 28, 32)        0         
_________________________________________________________________
zero_padding2d_2 (ZeroPaddin (None, 30, 30, 32)        0         
_________________________________________________________________
depthwise_conv2d_1 (Depthwis (None, 28, 28, 32)        320       
_________________________________________________________________
max_pooling2d_2 (MaxPooling2 (None, 14, 14, 32)        0         
_________________________________________________________________
zero_padding2d_3 (ZeroPaddin (None, 16, 16, 32)        0         
_________________________________________________________________
conv2d_2 (Conv2D)            (None, 16, 16, 64)        51200     
_________________________________________________________________
max_pooling2d_3 (MaxPooling2 (None, 8, 8, 64)          0         
_________________________________________________________________
zero_padding2d_4 (ZeroPaddin (None, 10, 10, 64)        0         
_________________________________________________________________
conv2d_3 (Conv2D)            (None, 10, 10, 128)       204800    
_________________________________________________________________
max_pooling2d_4 (MaxPooling2 (None, 5, 5, 128)         0         
_________________________________________________________________
batch_normalization_1 (Batch (None, 5, 5, 128)         512       
_________________________________________________________________
flatten_1 (Flatten)          (None, 3200)              0         
_________________________________________________________________
dropout_1 (Dropout)          (None, 3200)              0         
_________________________________________________________________
FC4 (Dense)                  (None, 128)               409728    
_________________________________________________________________
dropout_2 (Dropout)          (None, 128)               0         
_________________________________________________________________
predictions (Dense)          (None, 8)                 1032      
=================================================================
Total params: 670,024
Trainable params: 669,768
Non-trainable params: 256
_________________________________________________________________
None
Done!

Start training...

Found 1509 images belonging to 8 classes.
Found 372 images belonging to 8 classes.
Found 649 images belonging to 8 classes.
Found 158 images belonging to 8 classes.
…
