Building MLP model...

_________________________________________________________________
Layer (type)                 Output Shape              Param #   
=================================================================
first (Reshape)              (None, 3072)              0         
_________________________________________________________________
second (Dense)               (None, 2048)              6293504   
_________________________________________________________________
third (Dense)                (None, 1024)              2098176   
_________________________________________________________________
fourth (Dense)               (None, 512)               524800    
_________________________________________________________________
fifth (Dense)                (None, 8)                 4104      
=================================================================
Total params: 8,920,584
Trainable params: 8,920,584
Non-trainable params: 0
_________________________________________________________________
None
Done!

WARNING: model file mlp_task2.h5 exists and will be overwritten!

Start training...

Found 1881 images belonging to 8 classes.
Found 807 images belonging to 8 classes.
Epoch 1/50
…
