Building MLP model...

_________________________________________________________________
Layer (type)                 Output Shape              Param #   
=================================================================
first (Reshape)              (None, 2700)              0         
_________________________________________________________________
dense_1 (Dense)              (None, 2046)              5526246   
_________________________________________________________________
dense_2 (Dense)              (None, 1024)              2096128   
_________________________________________________________________
dense_3 (Dense)              (None, 512)               524800    
_________________________________________________________________
dense_4 (Dense)              (None, 8)                 4104      
=================================================================
Total params: 8,151,278
Trainable params: 8,151,278
Non-trainable params: 0
_________________________________________________________________
None
Done!

WARNING: model file my_first_mlp.h5 exists and will be overwritten!

Start training...

Found 1881 images belonging to 8 classes.
Found 807 images belonging to 8 classes.
Epoch 1/50
…
