Building MLP model...

_________________________________________________________________
Layer (type)                 Output Shape              Param #   
=================================================================
first (Reshape)              (None, 3072)              0         
_________________________________________________________________
dense_1 (Dense)              (None, 2046)              6287358   
_________________________________________________________________
dense_2 (Dense)              (None, 1024)              2096128   
_________________________________________________________________
final (Dense)                (None, 512)               524800    
_________________________________________________________________
dense_3 (Dense)              (None, 8)                 4104      
=================================================================
Total params: 8,912,390
Trainable params: 8,912,390
Non-trainable params: 0
_________________________________________________________________
None
Done!

Start training...

Found 1881 images belonging to 8 classes.
Found 807 images belonging to 8 classes.
Epoch 1/50

  1/117 [..............................] - ETA: 17:37 - loss: 47.2769 - acc: 0.0625
…
