WARNING: model file MODEL_scratch.h5 exists and will be overwritten!

Building our scratch model...

_________________________________________________________________
Layer (type)                 Output Shape              Param #   
=================================================================
zero_padding2d_1 (ZeroPaddin (None, 226, 226, 3)       0         
_________________________________________________________________
conv2d_1 (Conv2D)            (None, 113, 113, 32)      2432      
_________________________________________________________________
max_pooling2d_1 (MaxPooling2 (None, 56, 56, 32)        0         
_________________________________________________________________
zero_padding2d_2 (ZeroPaddin (None, 58, 58, 32)        0         
_________________________________________________________________
depthwise_conv2d_1 (Depthwis (None, 56, 56, 32)        320       
_________________________________________________________________
max_pooling2d_2 (MaxPooling2 (None, 28, 28, 32)        0         
_________________________________________________________________
zero_padding2d_3 (ZeroPaddin (None, 30, 30, 32)        0         
_________________________________________________________________
conv2d_2 (Conv2D)            (None, 30, 30, 64)        51264     
_________________________________________________________________
max_pooling2d_3 (MaxPooling2 (None, 15, 15, 64)        0         
_________________________________________________________________
zero_padding2d_4 (ZeroPaddin (None, 17, 17, 64)        0         
_________________________________________________________________
conv2d_3 (Conv2D)            (None, 17, 17, 80)        128080    
_________________________________________________________________
max_pooling2d_4 (MaxPooling2 (None, 8, 8, 80)          0         
_________________________________________________________________
batch_normalization_1 (Batch (None, 8, 8, 80)          320       
_________________________________________________________________
flatten_1 (Flatten)          (None, 5120)              0         
_________________________________________________________________
FC4 (Dense)                  (None, 512)               2621952   
_________________________________________________________________
dropout_1 (Dropout)          (None, 512)               0         
_________________________________________________________________
predictions (Dense)          (None, 8)                 4104      
=================================================================
Total params: 2,808,472
Trainable params: 2,808,312
Non-trainable params: 160
_________________________________________________________________
None
Done!

Start training...

Found 1881 images belonging to 8 classes.
Found 807 images belonging to 8 classes.
Epoch 1/50

 1/58 [..............................] - ETA: 10:23 - loss: 29.9361 - acc: 0.1562
…
